experiments/0.pth (torch_old, 618388 bytes, 27 tensors)

convblock1.0.weight f4 [32, 3, 3, 3]
-0.16302153 0.097799025 -0.01146807 0.08618922 -0.12440452 -0.004061925 0.111368805 0.05804976
-0.032128558 0.08122514 -0.17836277 0.039996263 0.004677005 0.14109305 -0.12460924 -0.054452047
-0.08526511 -0.023353176 -0.08307173 0.15972483 0.16658308 0.089153 0.015166153 0.11382104
0.06931755 -0.1705972 0.09288973 -0.017762182 -0.13466315 -0.08846101 -0.08727119 0.026576057
0.07529907 -0.07827859 -0.17125183 -0.0049353437 0.09854396 -0.18932013 0.0033450122 -0.034466237
-0.2382024 0.0050532515 0.10143251 -0.17422783 -0.22704816 0.013933664 -0.013151168 0.031027677
-0.0038339114 -0.120427065 0.12306898 0.087936714 -0.17578997 -0.11901624 -0.20124218 0.0886111
0.03107113 -0.061336443 0.093714185 0.026345154 0.1843542 -0.15246907 -0.05037136 -0.19505364
0.10575157 0.07238314 -0.035716113 0.08176085 0.09721334 -0.139115 -0.13200417 0.07526209
0.1656027 -0.07125754 -0.009407231 -0.051158182 0.11869418 0.063735135 -0.06595463 0.11661112
-0.13313597 -0.0715522 -0.017732123 0.03761933 0.09578138 0.07859118 -0.10723162 0.046841174
-0.13598928 -0.021633057 0.06411025 0.1666808 0.13754416 -0.021122195 0.060315482 0.08431536
-0.14570214 0.10352754 0.06999682 0.1447823 -0.15153612 0.15598379 0.14987318 -0.012489562
-0.18539393 0.15213169 0.1591819 -0.093700394 0.19313878 0.0455141 0.006416521 0.06801404
0.07948418 -0.12696335 0.11216093 0.13537979 -0.14121923 0.09677432 -0.061727904 0.04846804
0.01441664 -0.031522837 0.058615647 0.02743953 0.033858154 0.13488035 -0.14997318 0.2152094
0.087141514 -0.01747095 -0.050038747 -0.046178523 -0.1285262 -0.008272602 -0.17655483 -0.007483762
0.058723383 0.15480141 0.19389854 0.12893645 -0.120455265 -0.014859679 0.03177683 0.14778823
-0.011241185 -0.14159091 0.1920479 0.07846546 0.019158615 0.007413423 0.021160448 0.18878843
0.04004277 0.011758228 0.21860316 0.004927065 -0.11374111 0.0064312373 0.15881571 0.08296525
-0.0996787 0.109433115 -0.23181039 -0.21826123 -0.2074334 -0.11764303 0.07461952 0.0025300789
-0.25519848 -0.13571648 0.07278834 -0.054923978 -0.09334272 -0.12953967 -0.2287996 -0.00045318445
0.090647645 0.11490681 0.025520746 -0.012551222 0.13539475 -0.012755904 -0.07289828 -0.17080294
0.119412914 -0.0032260707 -0.18891689 0.015310215 -0.054234613 -0.14942342 -0.20935127 -0.064998336
-0.22212727 -0.008612273 0.010475705 -0.116200104 -0.021494083 0.078577355 -0.18659909 -0.12059835
0.083184466 0.115564756 0.0036338586 0.011348961 0.11816789 -0.11101163 0.11072815 -0.15804061
-0.10689175 0.046219677 0.03877943 -0.24408367 -0.0737422 0.07192374 -0.18189538 0.0067290436
-0.020957474 -0.17779763 0.01630262 0.031519715 0.069464765 -0.11783023 -0.09466233 0.096641935
0.09188353 0.09993108 -0.17115262 -0.112764046 0.051439267 -0.0047339736 -0.096778646 0.010881614
0.16913593 -0.05165635 0.04727348 0.055861898 0.14059114 0.076596454 0.1697883 0.049108062
0.1577177 -0.019934794 -0.0044038235 0.018878631 0.10100065 -0.15937437 0.14883445 0.12653446
-0.07435535 0.07436233 -0.17543063 -0.046607193 -0.13285038 0.16923961 -0.045157433 -0.16410013
00000000: 1eef 26be db4a c83d 92e4 3bbc f983 b03d
00000010: ccc7 febd e619 85bb 5415 e43d 96c5 6d3d
00000020: 3c99 03bd 5e59 a63d bba4 36be 1fd3 233d
00000030: 9041 993b b27a 103e 2133 ffbd 1c09 5fbd
00000040: 799f aebd 294f bfbc 8321 aabd e88e 233e
00000050: c194 2a3e d995 b63d 757b 783c 011b e93d
00000060: 5cf6 8d3d 08b1 2ebe f93c be3d ff81 91bc
00000070: 23e5 09be 0c2b b5bd 3dbb b2bd 08b6 d93c
00000080: 6636 9a3d 8750 a0bd a45c 2fbe aab8 a1bb
00000090: 6ad1 c93d 23dd 41be fe37 5b3b 782c 0dbd
000000a0: 54eb 73be bf95 a53b d9bb cf3d c868 32be
000000b0: 507f 68be 064a 643c ff77 57bc c12d fe3c
000000c0: 5c42 7bbb 77a2 f6bd 970b fc3d 2a18 b43d
000000d0: 4902 34be c9be f3bd 6e12 4ebe bd79 b53d
000000e0: e288 fe3c ec3b 7bbd 39ed bf3d cbd1 d73c
000000f0: 59c7 3c3e da20 1cbe 3352 4ebd 24bc 47be
00000100: 4794 d83d 9d3d 943d 0f4b 12bd 3c72 a73d
00000110: ca17 c73d 2a74 0ebe 1a2c 07be 0323 9a3d
00000120: c193 293e 79ef 91bd c920 1abc 3e8b 51bd
00000130: ef15 f33d 9187 823d 3913 87bd d0d1 ee3d
00000140: cc54 08be f689 92bd f542 91bc ba16 1a3d
00000150: 0729 c43d 6af4 a03d 409c dbbd 88dc 3f3d
00000160: c640 0bbe cf37 b1bc 3c4c 833d 5fae 2a3e
00000170: 60d8 0c3e 7408 adbc 5e0d 773d 88ad ac3d
00000180: f132 15be 3f06 d43d 7e5a 8f3d d041 143e
00000190: 492c 1bbe 37ba 1f3e 5b78 193e 05a1 4cbc
000001a0: e8d7 3dbe 69c8 1b3e 9400 233e fee5 bfbd
000001b0: 2cc6 453e fe6c 3a3d ae41 d23b f24a 8b3d
000001c0: 9ac8 a23d ae02 02be a1b4 e53d 00a1 0a3e
000001d0: c69b 10be 9d31 c63d 66d6 7cbd 6c86 463d
000001e0: c533 6c3c 171e 01bd f616 703d ddc8 e03c
000001f0: d9ae 0a3d 131e 0a3e 9292 19be da5f 5c3e
00000200: 4077 b23d 3d1f 8fbc 6ef5 4cbd b125 3dbd
00000210: 5f9c 03be cf89 07bc caca 34be 593a f5bb
00000220: ee87 703d 4384 1e3e 578d 463e eb07 043e
00000230: 40b1 f6bd 0376 73bc 6c28 023d cc55 173e
00000240: f22c 38bc 35fd 10be 34a8 443e 80b2 a03d
00000250: 87f2 9c3c 4dec f23b ad58 ad3c c151 413e
00000260: e303 243d 95a5 403c 82d9 5f3e 3873 a13b
00000270: 19f1 e8bd 21bd d23b 96a0 223e afe9 a93d
00000280: 5924 ccbd 781e e03d b45f 6dbe df7f 5fbe
00000290: 6c69 54be d4ee f0bd 1ed2 983d aecf 253b
000002a0: 60a9 82be 43f9 0abe 0e12 953d f7f7 60bd
000002b0: 782a bfbd 0ca6 04be 714a 6abe 6399 edb9
000002c0: 79a5 b93d 4354 eb3d e210 d13c a4a3 4dbc
000002d0: eca4 0a3e 24fe 50bc b24b 95bd f7e6 2ebe
000002e0: c28e f43d 7c6c 53bb 6e73 41be b2d7 7a3c
000002f0: 1d25 5ebd 7402 19be 2e60 56be d91d 85bd
00000300: 5575 63be 7e1a 0dbc 4ba2 2b3c 52fa edbd
00000310: 5c14 b0bc 2aed a03d d513 3fbe 45fc f6bd
00000320: 9e5c aa3d 37ad ec3d 0826 6e3b fef0 393c
00000330: 0202 f23d 115a e3bd 71c5 e23d 66d5 21be
00000340: 10ea dabd d850 3d3d 2ed7 1e3d 12f1 79be
00000350: 2706 97bd c14c 933d c842 3abe 4f7f dc3b
00000360: 02af abbc 9510 36be 128d 853c d11a 013d
00000370: 8b43 8e3d fa50 f1bd 53de c1bd 35ec c53d
00000380: 6f2d bc3d aba8 cc3d a242 2fbe d6f0 e6bd
00000390: fbb1 523d 731f 9bbb e233 c6bd cc48 323c
000003a0: f831 2d3e 9c95 53bd d6a1 413d 72cf 643d
000003b0: 20f7 0f3e 9ade 9c3d fcdc 2d3e 8925 493d
000003c0: c080 213e 4b4e a3bc f34d 90bb 5ca7 9a3c
000003d0: 6ed9 ce3d 0933 23be 0f68 183e 4092 013e
000003e0: 9e47 98bd 474b 983d 16a4 33be 2fe7 3ebd
000003f0: ee09 08be 264d 2d3e 00f7 38bd dd09 28be

convblock1.1.weight f4 [32]
1.0025653 0.9851776 0.9964436 0.9884378 0.9971716 1.0526928 0.9790362 0.9547274
0.94170296 0.99282485 0.9607273 0.9954516 0.9122189 1.2182641 0.98052764 0.9620191
0.8936467 1.0022985 1.0008129 0.98971254 1.0254902 1.0174017 0.9674705 0.93759125
0.95968676 0.92793274 0.98352206 0.8932665 0.99080753 0.9996165 0.9600515 0.99484414
00000000: 0f54 803f 9934 7c3f ee16 7f3f 420a 7d3f
00000010: a346 7f3f a3be 863f 1ea2 7a3f 0469 743f
00000020: 7213 713f c529 7e3f 39f2 753f ebd5 7e3f
00000030: 2e87 693f 14f0 9b3f dc03 7b3f e246 763f
00000040: 08c6 643f 514b 803f a31a 803f cd5d 7d3f
00000050: 4343 833f 383a 823f 26ac 773f fb05 703f
00000060: 08ae 753f 008d 6d3f 1ac8 7b3f 1dad 643f
00000070: 90a5 7d3f dee6 7f3f efc5 753f 1bae 7e3f

convblock1.1.bias f4 [32]
0.008604091 0.04012877 0.012925219 -0.0044172974 -0.0032095143 0.05149903 0.032490555 0.045941412
-0.03498967 -0.011616863 -0.012634626 0.011690764 0.011484426 0.11881097 -0.036091156 0.0484014
-0.06771426 0.049240254 0.018907825 0.038393594 0.10047495 0.022383606 0.03638765 -0.062909156
0.02925213 -0.014562615 0.0030146814 0.008790854 -0.00046480936 -0.0025909313 0.07048614 -0.025185773
00000000: 2cf8 0c3c 115e 243d 4cc4 533c fabe 90bb
00000010: b756 52bb a6f0 523d d114 053d 102d 3c3d
00000020: 5451 0fbd a854 3ebc 7601 4fbc 9e8a 3f3c
00000030: 2d29 3c3c 2a53 f33d 52d4 13bd 8c40 463d
00000040: c6ad 8abd 26b0 493d 95e4 9a3c 9a42 1d3d
00000050: d0c5 cd3d d35d b73c 370b 153d 84d6 80bd
00000060: 2aa2 ef3c 0998 6ebc f691 453b 8407 103c
00000070: a8b1 f3b9 9dcc 29bb 0a5b 903d 6552 cebc

convblock1.1.running_mean f4 [32]
28.008062 -137.66396 2.8507037 77.34968 44.399017 140.75922 -160.88072 -134.32178
47.44833 -11.7421465 75.770546 -184.06242 -112.60211 17.280592 229.5745 -171.05302
-21.06426 65.99145 102.04281 80.15644 -157.66888 104.275955 -129.76878 524.6016
70.606224 147.79326 -231.43576 44.921623 115.2904 -50.27648 -90.19661 -30.578705
00000000: 8310 e041 f9a9 09c3 ee71 3640 09b3 9a42
00000010: 9898 3142 5cc2 0c43 77e1 20c3 6052 06c3
00000020: 17cb 3d42 d5df 3bc1 858a 9742 fb0f 38c3
00000030: 4834 e1c2 a73e 8a41 1293 6543 930d 2bc3
00000040: 9b83 a8c1 9ffb 8342 eb15 cc42 1950 a042
00000050: 3cab 1dc3 4a8d d042 cfc4 01c3 8126 0344
00000060: 6336 8d42 13cb 1343 8e6f 67c3 beaf 3342
00000070: af94 e642 1e1b 49c2 aa64 b4c2 30a1 f4c1

convblock1.1.running_var f4 [32]
311.66986 6517.5186 184.90756 2004.2953 941.585 6520.2666 9069.363 6272.6313
934.15643 136.92877 2004.0085 11004.223 4716.761 368.07645 17897.027 9556.648
357.51385 1490.4376 3653.161 2353.4531 8152.0454 3655.0442 5624.4746 89894.805
1831.8348 7582.8013 17532.643 1367.4385 4579.631 1387.0875 4056.9915 721.328
00000000: bed5 9b43 26ac cb45 56e8 3843 7389 fa44
00000010: 7165 6b44 22c2 cb45 74b5 0d46 0d05 c445
00000020: 038a 6944 c4ed 0843 4680 fa44 e4f0 2b46
00000030: 1766 9345 c909 b843 0ed2 8b46 9852 1546
00000040: c6c1 b243 014e ba44 9352 6445 4017 1345
00000050: 5dc0 fe45 b570 6445 ccc3 af45 6793 af47
00000060: b7fa e444 69f6 ec45 49f9 8846 08ee aa44
00000070: 0c1d 8f45 cd62 ad44 dd8f 7d45 fe54 3444

convblock2.0.weight f4 [32, 1, 3, 3]
-0.05841293 0.07393665 -0.10288 0.08021256 0.11179546 0.2517874 -0.12975733 0.096248455
0.3173356 -0.33054677 0.041939992 0.26043025 -0.25490364 -0.34829694 0.1264628 0.21079287
-0.20646277 0.03515122 0.2076004 -0.19534661 0.1247994 -0.10514513 -0.15899155 0.05781165
-0.24439622 -0.108472526 0.28398305 -0.078708634 0.08611547 0.18691066 -0.07629897 -0.36337683
-0.36600223 -0.0476935 0.09505339 0.12036572 0.06357325 -0.21490954 -0.29438183 -0.37683773
-0.08210721 0.11112972 -0.15454729 -0.011421766 0.19650722 0.16335927 0.124537215 0.19034514
0.37589583 0.04032551 0.3350607 0.21439862 -0.10514733 0.32377395 0.094038054 0.11359282
0.06127747 0.000855055 0.06996233 -0.12928687 0.13959855 0.23912717 0.022833942 -0.24222526
-0.21327846 0.2426374 -0.20026267 -0.33784905 0.26350427 -0.048578225 -0.13330233 0.24273878
-0.36645204 0.070390776 -0.058330934 0.18470103 0.026299246 -0.4143677 -0.30594543 0.15945044
0.05309281 -0.17252624 -0.118771315 -0.26893276 0.3650623 -0.10138843 0.05172641 0.058435135
0.21261007 -0.20576781 0.14409707 0.1712961 0.13839135 -0.22520025 0.06944381 -0.19076133
0.23179899 -0.15507829 -0.28524718 -0.03887154 0.32301417 0.1187806 0.30582744 0.11362171
-0.30225924 -0.2808614 0.13613872 -0.00489517 -0.008255093 -0.12203646 0.13934822 -0.13059938
0.03866581 0.11172003 -0.09768046 -0.40442452 0.1156574 0.45667163 0.19330503 0.2622243
0.50236994 0.46773648 -0.10635693 0.26503572 0.38613844 0.3060278 -0.26554483 0.09575982
-0.037275612 0.17550626 0.20866087 -0.230218 0.01764584 0.18862832 -0.21578377 -0.22094238
-0.261166 -0.3063544 0.08431572 -0.1748117 0.02380808 0.074154966 0.026763793 -0.46176445
-0.03495705 0.021172423 0.07798884 0.023387536 0.37047157 0.16485366 -0.0113848625 0.2832154
-0.18362264 -0.0028954097 0.15599059 0.053847793 0.22441153 0.33045882 0.09441026 -0.018453253
0.19438967 -0.06623522 0.23511088 0.20468603 -0.27364764 -0.088660255 0.2877748 0.3489026
0.19220226 0.11175459 -0.0751595 0.17703821 0.40599018 -0.179311 0.21431375 0.18015611
-0.083423205 -0.15767214 0.057254586 -0.0676316 0.22649729 0.19162433 0.27595556 -0.06160558
-0.12605675 0.34309343 0.059576195 0.2555596 0.39034286 -0.3720144 -0.16851655 -0.047210023
-0.09328805 -0.24828872 -0.04965325 -0.27431834 0.14919136 -0.16771354 -0.03978481 0.07003733
-0.3237492 -0.116104454 -0.29447 0.12211584 0.14407435 0.0013705923 -0.36690506 -0.337382
0.16812755 0.032995276 0.02644469 -0.27607727 -0.12772779 -0.003928388 0.043486383 0.1985689
-0.24109566 -0.19585156 0.09993438 -0.014210324 -0.15810414 0.29140943 -0.1781207 0.15067682
-0.11206319 -0.22076039 -0.011174751 -0.24273998 0.112674266 -0.22017494 0.12900093 -0.2110802
-0.032994527 -0.16831623 -0.11000619 -0.038827244 -0.17345758 -0.17603952 0.30066437 0.33357382
-0.2764136 0.21388054 -0.24070744 0.15678161 -0.09584402 0.10859315 -0.013188332 0.38785896
0.18734123 0.21938436 0.22467124 -0.08918489 -0.034312036 0.30218035 -0.0060867495 0.090232536
00000000: 6642 6fbd 196c 973d c0b2 d2bd 7c46 a43d
00000010: 05f5 e43d 47ea 803e 1bdf 04be e91d c53d
00000020: d079 a23e 6d3d a9be 45c9 2b3d 1d57 853e
00000030: bb82 82be fa53 b2be 777f 013e 16da 573e
00000040: fa6a 53be bafa 0f3d 3395 543e f108 48be
00000050: d496 ff3d 5456 d7bd aece 22be e9cb 6c3d
00000060: 0143 7abe d826 debd 3a66 913e fe31 a1bd
00000070: 4f5d b03d 8265 3f3e a242 9cbd 870c babe
00000080: a564 bbbe 425a 43bd 5aab c23d 4d82 f63d
00000090: b132 823d 3f11 5cbe 37b9 96be e0f0 c0be
000000a0: d327 a8bd fb97 e33d a541 1ebe 5c22 3bbc
000000b0: 3039 493e a747 273e 5e0d ff3d d6e9 423e
000000c0: 6b75 c03e 5d2c 253d 138d ab3e 508b 5b3e
000000d0: 7c57 d7bd b3c5 a53e 0697 c03d 5aa3 e83d
000000e0: 16fe 7a3d c525 603a 6948 8f3d c763 04be
000000f0: ecf2 0e3e c1dd 743e 3f0e bb3c e609 78be
00000100: ab65 5abe f075 783e a811 4dbe 8dfa acbe
00000110: 08ea 863e f6f9 46bd 6880 08be 8490 783e
00000120: 9a9f bbbe 0a29 903d 6bec 6ebd 4422 3d3e
00000130: 8471 d73c 0128 d4be e1a4 9cbe fa46 233e
00000140: d977 593d b8aa 30be 603e f3bd 8eb1 89be
00000150: 72e9 ba3e bda4 cfbd 12df 533d ae59 6f3d
00000160: 74b6 593e ccb4 52be 2f8e 133e 3f68 2f3e
00000170: 76b6 0d3e e59a 66be 8e38 8e3d f056 43be
00000180: b75c 6d3e d8cc 1ebe eb0b 92be c437 1fbd
00000190: 1d62 a53e 3e43 f33d 6a95 9c3e 80b2 e83d
000001a0: b9c1 9abe 11cd 8fbe f367 0b3e aa67 a0bb
000001b0: 5f40 07bc 40ee f9bd 4db1 0e3e d8bb 05be
000001c0: 0a60 1e3d 79cd e43d b10c c8bd bb10 cfbe
000001d0: c9dd ec3d ddd0 e93e c1f1 453e 4342 863e
000001e0: 519b 003f 287b ef3e aad1 d9bd c3b2 873e
000001f0: f0b3 c53e adaf 9c3e 7ef5 87be b91d c43d
00000200: 50ae 18bd eab7 333e 32ab 553e 44be 6bbe
00000210: 028e 903c c827 413e 6cf6 5cbe b83e 62be
00000220: 8db7 85be 7cda 9cbe b8ad ac3d d701 33be
00000230: 2a09 c33c 8fde 973d be3f db3c 646c ecbe
00000240: 202f 0fbd ca71 ad3c 9db8 9f3d 3897 bf3c
00000250: 73ae bd3e 66cf 283e 9387 3abc 9c01 913e
00000260: 9307 3cbe eac0 3dbb ffbb 1f3e 818f 5c3d
00000270: 23cc 653e e631 a93e 2b5a c13d 472b 97bc
00000280: 160e 473e 55a6 87bd e8c0 703e 3799 513e
00000290: 8b1b 8cbe 8293 b5bd 3857 933e 5da3 b23e
000002a0: abd0 443e 97df e43d 39ed 99bd 8149 353e
000002b0: f2dd cf3e 4e9d 37be 1075 5b3e d87a 383e
000002c0: c9d9 aabd ce74 21be c983 6a3d 7082 8abd
000002d0: e8ee 673e 2b39 443e 0c4a 8d3e 2256 7cbd
000002e0: 0515 01be f1a9 af3e 2b06 743d b5d8 823e
000002f0: 05db c73e ac78 bebe 9a8f 2cbe 4c5f 41bd
00000300: ce0d bfbd 663f 7ebe 3561 4bbd 7473 8cbe
00000310: 9fc5 183e 19bd 2bbe 66f5 22bd bb6f 8f3d
00000320: 75c2 a5be 2cc8 edbd c6c4 96be df17 fa3d
00000330: 3a88 133e 72a5 b33a fbda bbbe 55bd acbe
00000340: a129 2c3e 0e26 073d 89a2 d83c 005a 8dbe
00000350: 13cb 02be b5b9 80bb c71e 323d a555 4b3e
00000360: c8e1 76be 508d 48be 65aa cc3d 6bd2 68bc
00000370: 0de6 21be 9e33 953e 4665 36be 064b 1a3e
00000380: 6381 e5bd 030f 62be 4e16 37bc d490 78be
00000390: c4c1 e63d 8a75 61be d218 043e 6825 58be
000003a0: 4525 07bd 175b 2cbe ed4a e1bd 5109 1fbd
000003b0: dd9e 31be b443 34be aef0 993e 30ca aa3e
000003c0: 1586 8dbe 8003 5b3e 037c 76be 5c8b 203e
000003d0: df49 c4bd 1666 de3d e013 58bc 7395 c63e
000003e0: 61d6 3f3e 4ba6 603e 3810 663e 91a6 b6bd
000003f0: c78a 0cbd 62b7 9a3e 5b73 c7bb d6cb b83d

convblock2.1.weight f4 [64, 32, 1, 1]
-0.16527572 -0.024930943 0.09184361 0.0500268 -0.07206838 -0.0017776384 -0.11953224 -0.153199
-0.14816667 0.12130368 0.0075642816 0.13025823 0.110871695 0.19395044 0.093191795 0.14024594
0.15774387 0.029968828 0.18358937 -0.09383709 0.118284844 -0.14726008 -0.12734522 -0.12749639
-0.07192506 0.09070163 -0.01693401 0.16645722 0.18110697 0.08108453 0.10773408 -0.08314515
0.13502099 0.07287611 0.069028415 0.15306683 0.0029020174 0.12628476 0.030162597 0.06469879
0.10583573 -0.14867167 0.0058482448 -0.094977535 0.14612664 0.18796498 0.074852124 0.16077529
0.0481574 -0.02248285 -0.01852378 0.14230858 -0.045516785 -0.16554642 -0.15961932 -0.030779395
0.07108274 0.022058174 0.082797445 -0.087289095 -0.08781474 0.10013729 0.09727513 0.10423864
-0.14462478 -0.019003501 0.0076600662 0.10550978 0.11507106 0.13758369 0.0059557725 0.19394264
-0.075271666 -0.111607105 0.021399375 -0.17616427 0.017151384 -0.13755365 0.1397688 -0.012308009
-0.08167764 0.029074332 0.16998789 0.112442784 -0.024349049 -0.107545435 0.03107196 -0.052949663
-0.029788854 0.1707019 -0.04424522 0.0117001515 -0.013558686 0.10684491 -0.24906026 -0.108806565
0.06350503 -0.0015642467 -0.034933683 -0.1638141 -0.11933255 0.031212093 0.023582865 0.1685805
-0.07227372 0.017678648 0.09881044 0.039304808 -0.0610016 0.15203008 0.006019212 -0.15083507
0.09080527 -0.07332793 0.18828632 0.13498554 -0.010533199 0.13115259 0.16954203 0.081010334
0.028436651 0.0062090917 -0.10567014 -0.08343913 0.0770228 -0.10797173 0.06355835 0.1843931
0.0072080716 -0.019224698 0.1212698 0.08573796 -0.050426297 0.19312446 -0.043191835 0.0038020478
-0.052711993 0.10719139 0.06112694 0.09277118 0.13255067 0.01656864 0.08841762 -0.1571963
0.03353276 -0.09523806 0.19717787 -0.13850185 -0.09543464 -0.020366764 -0.041025706 -0.15167685
0.11221224 -0.1854751 -0.016609576 0.07537899 -0.07530028 0.14630175 -0.017055541 0.1452155
0.05694948 -0.052558895 0.09811826 0.10519181 -0.04342535 -0.079147644 0.0013592313 0.057580825
0.06761976 0.19373953 -0.045970943 0.0014137512 -0.054482453 -0.12307516 0.088247865 -0.1422852
0.16300617 -0.103143856 -0.1681089 0.09068381 0.08278185 0.110342786 0.10153678 -0.12588462
0.14672631 -0.09784179 -0.09137613 -0.06835837 0.158034 -0.087510735 -0.051392045 -0.13161196
0.03971556 -0.07253325 -0.14014025 -0.016036008 -0.17405799 0.24093315 -0.07366829 0.065986596
-0.09271347 -0.1493478 -0.02539943 0.092766345 -0.116923966 0.11339264 0.09725454 0.17239168
-0.12045588 -0.030442726 0.050421566 0.1064769 -0.10412631 -0.16541348 -0.040106624 -0.14571787
0.04035727 -0.064212345 -0.15077597 0.01567251 0.19358335 0.14350757 0.12558141 -0.024355117
0.14560816 0.053539842 -0.07524047 -0.08546515 0.07176472 0.16960354 0.016437704 0.067258276
-0.031222653 0.009409594 0.10075078 -0.027542248 -0.023783058 -0.051653687 -0.123522945 0.15490255
-0.09301202 0.09801398 -0.017413003 -0.14952579 -0.15453719 -0.036552638 0.014890716 -0.0125578325
0.14002894 -0.16019815 0.056097396 -0.042539828 0.034374867 0.124591894 -0.09824367 0.07397561
00000000: 0a3e 29be fa3b ccbc 8118 bc3d e7e8 4c3d
00000010: 9698 93bd a6ff e8ba 52cd f4bd 33e0 1cbe
00000020: 01b9 17be 106e f83d cbdd f73b 6a62 053e
00000030: b310 e33d f29a 463e 57db be3d a29c 0f3e
00000040: 9c87 213e 3081 f53c dafe 3b3e a92d c0bd
00000050: 533f f23d 59cb 16be c966 02be 6a8e 02be
00000060: 724d 93bd c7c1 b93d 31b9 8abc c373 2a3e
00000070: 1b74 393e a50f a63d afa3 dc3d 0148 aabd
00000080: f142 0a3e 1240 953d c55e 8d3d 8dbd 1c3e
00000090: c62f 3e3b cb50 013e 8d17 f73c cd80 843d
000000a0: 67c0 d83d 633d 18be a2a2 bf3b 9583 c2bd
000000b0: 39a2 153e e479 403e 124c 993d 47a2 243e
000000c0: b240 453d f42d b8bc 2fbf 97bc 57b9 113e
000000d0: cf6f 3abd 0085 29be 3f73 23be 1225 fcbc
000000e0: d493 913d 58b3 b43c b591 a93d a0c4 b2bd
000000f0: 37d8 b3bd c814 cd3d 2f38 c73d 117b d53d
00000100: 8518 14be 3bad 9bbc 4b01 fb3b 8315 d83d
00000110: 60aa eb3d bde2 0c3e a428 c33b e698 463e
00000120: 0828 9abd 4492 e4bd be4d af3c 6864 34be
00000130: 0f81 8c3c ddda 0cbe 8d1f 0f3e 88a7 49bc
00000140: 9b46 a7bd 4b2d ee3c 4e11 2e3e 6748 e63d
00000150: a877 c7bc c840 dcbd a08a fe3c bfe1 58bd
00000160: c107 f4bc 7bcc 2e3e 7a3a 35bd feb1 3f3c
00000170: 4025 5ebc 81d1 da3d a709 7fbe fad5 debd
00000180: ed0e 823d 6907 cdba 9f16 0fbd e2be 27be
00000190: a064 f4bd 81b0 ff3c da30 c13c 5ea0 2c3e
000001a0: 3e04 94bd d0d2 903c 215d ca3d 14fe 203d
000001b0: d0dc 79bd c6ad 1b3e cf3c c53b 8274 1abe
000001c0: 1df8 b93d f42c 96bd 21ce 403e a639 0a3e
000001d0: 7093 2cbc dd4c 063e 6d9c 2d3e bfe8 a53d
000001e0: fbf3 e83c a375 cb3b 9669 d8bd 22e2 aabd
000001f0: 21be 9d3d 4820 ddbd e12a 823d 8bd1 3c3e
00000200: b031 ec3b 1d7d 9dbc 4d5c f83d 6297 af3d
00000210: ce8b 4ebd 6bc2 453e ece9 30bd c72b 793b
00000220: 88e8 57bd 2987 db3d 3e60 7a3d d1fe bd3d
00000230: 5dbb 073e f5ba 873c 4c14 b53d 11f8 20be
00000240: a659 093d 2c0c c3bd ffe8 493e 6ed3 0dbe
00000250: 3d73 c3bd 33d8 a6bc 920a 28bd 2d51 1bbe
00000260: 88cf e53d 2fed 3dbe ce10 88bc 4d60 9a3d
00000270: 0837 9abd 20d0 153e 10b8 8bbc 5fb3 143e
00000280: dc43 693d ff47 57bd 3af2 c83d ce6e d73d
00000290: c8de 31bd 2918 a2bd 3c28 b23a dfd9 6b3d
000002a0: 3b7c 8a3d a863 463e 074c 3cbd 9e4d b93a
000002b0: fe28 5fbd d40e fcbd 4cbb b43d 36b3 11be
000002c0: 17eb 263e 163d d3bd bd24 2cbe 6fb8 b93d
000002d0: 8889 a93d 66fb e13d 84f2 cf3d e6e7 00be
000002e0: 6c3f 163e 4761 c8bd 6923 bbbd 79ff 8bbd
000002f0: aad3 213e d438 b3bd 7780 52bd 49c5 06be
00000300: c8ac 223d 508c 94bd ed80 0fbe f25d 83bc
00000310: 423c 32be 2eb7 763e 67df 96bd fb23 873d
00000320: 8fe0 bdbd a1ee 18be 7712 d0bc 48fc bd3d
00000330: d575 efbd 673a e83d 632d c73d 7287 303e
00000340: 93b1 f6bd 0663 f9bc d886 4e3d 9010 da3d
00000350: 2d40 d5bd 2762 29be d846 24bd 1137 15be
00000360: aa4d 253d c381 83bd 0465 1abe a363 803c
00000370: b73a 463e a6f3 123e 6a98 003e 6284 c7bc
00000380: 4e1a 153e 984c 5b3d ad17 9abd 5a08 afbd
00000390: 62f9 923d 8dac 2d3e 5da8 863c b5be 893d
000003a0: a6c6 ffbc b32a 1a3c 6d56 ce3d 48a0 e1bc
000003b0: b0d4 c2bc d192 53bd 99f9 fcbd c69e 1e3e
000003c0: 167d bebd 8ebb c83d b7a5 8ebc 4a1d 19be
000003d0: ff3e 1ebe 38b8 15bd 31f8 733c 5ebf 4dbc
000003e0: bf63 0f3e fc0a 24be 62c6 653d 3e3e 2ebd
000003f0: a9cc 0c3d 092a ff3d fa33 c9bd 8680 973d

convblock2.2.weight f4 [64]
0.96130866 0.97664976 0.9273794 0.9493443 0.97585666 0.9749127 0.99912703 0.9587103
0.98369014 0.9495748 0.9749362 0.9917068 0.98247534 1.0027286 1.0120555 0.9789928
0.9587439 0.9705635 0.9801529 0.9432161 0.97630244 0.98892397 0.99444395 0.98341995
0.90575504 0.99094665 0.9804533 0.98209924 0.98609763 1.0032823 0.96753925 0.99192667
0.95906717 0.9889068 0.9769933 0.9784217 0.9292473 0.9543074 0.9924738 0.9602353
0.974509 1.0043516 1.0001166 0.9447219 0.9683296 0.9787817 0.8826547 0.9543666
0.98417056 0.9527741 0.9811898 0.96013 1.0111855 0.9611634 0.9568477 0.9582879
0.93033916 0.99094963 0.9906975 0.8652522 0.9912246 0.90568537 0.98844695 0.9679232
00000000: 5318 763f b805 7a3f bd68 6d3f 3a08 733f
00000010: bed1 793f e193 793f cac6 7f3f 0a6e 753f
00000020: 1ed3 7b3f 5617 733f 6b95 793f 7fe0 7d3f
00000030: 8183 7b3f 6959 803f 098b 813f 469f 7a3f
00000040: 3d70 753f d976 783f 4deb 7a3f 9c76 713f
00000050: f5ee 793f 1f2a 7d3f e193 7e3f 69c1 7b3f
00000060: 90df 673f aeae 7d3f fdfe 7a3f db6a 7b3f
00000070: e570 7c3f 8e6b 803f a7b0 773f e8ee 7d3f
00000080: 6d85 753f ff28 7d3f 3c1c 7a3f d879 7a3f
00000090: 27e3 6d3f 7d4d 743f c312 7e3f fbd1 753f
000000a0: 6c79 793f 988e 803f d203 803f 4bd9 713f
000000b0: 73e4 773f 7091 7a3f a9f5 613f 5f51 743f
000000c0: 9af2 7b3f 01e9 733f 412f 7b3f 14cb 753f
000000d0: 876e 813f ce0e 763f f9f3 743f 5b52 753f
000000e0: b52a 6e3f e0ae 7d3f 5a9e 7d3f 2b81 5d3f
000000f0: e5c0 7d3f ffda 673f dc0a 7d3f d1c9 773f

convblock2.2.bias f4 [64]
0.0007279126 0.0027685282 -0.037065644 -0.01829239 -0.012855615 -0.00018460363 0.01406955 -0.014406707
0.0028436007 -0.025530107 -0.007160855 0.01772158 0.018469278 -0.021640599 0.025158564 0.0062784245
-0.005809978 0.019951092 -0.008000237 -0.020736415 0.026843337 0.010925093 0.015608064 -0.0036190841
-0.038012963 0.016009497 0.02284763 0.019976145 0.015678702 0.022650013 -0.00055752916 0.009481728
0.0068679336 0.015913356 0.011483939 0.043805353 -0.0097452495 -0.04753201 -0.0021352754 -0.038685825
-0.015282899 0.05360533 0.019208858 -0.03561122 -0.009679462 0.0042454344 0.038898963 -0.014210668
0.012959519 -0.049664512 0.022365341 0.0031837276 0.020038432 -0.011251484 -0.0034170211 -0.020513754
-0.008689162 -0.004035906 0.009186078 -0.04058712 0.021442559 -0.03125487 0.014002414 -0.012521709
00000000: 63d1 3e3a 3270 353b 25d2 17bd ecd9 95bc
00000010: 5ba0 52bc 2992 41b9 f883 663c 1c0a 6cbc
00000020: b45b 3a3b 8424 d1bc 9ba5 eabb d92c 913c
00000030: e24c 973c a047 b1bc 5519 ce3c 3ebb cd3b
00000040: a161 bebb 7970 a33c 6d13 03bc 6adf a9bc
00000050: 8fe6 db3c 29ff 323c f7b8 7f3c 282e 6dbb
00000060: 7bb3 1bbd 5926 833c f42a bb3c 03a5 a33c
00000070: 9f70 803c 858c b93c 2627 12ba 4059 1b3c
00000080: 670c e13b ba5c 823c 2227 3c3c 3e6d 333d
00000090: 8aaa 1fbc edb0 42bd faef 0bbb 0775 1ebd
000000a0: 2065 7abc 4391 5b3d e55b 9d3c 12dd 11bd
000000b0: 9b96 1ebc 491d 8b3b 8554 1f3d ddd3 68bc
000000c0: 2a54 543c 046d 4bbd 8537 b73c 16a6 503b
000000d0: a327 a43c 2558 38bc 1af0 5fbb 760c a8bc
000000e0: fd5c 0ebc a23f 84bb 3481 163c ae3e 26bd
000000f0: 4ea8 af3c 1b05 00bd 626a 653c db27 4dbc

convblock2.2.running_mean f4 [64]
0.7051606 0.32388788 -0.2105939 0.3194259 0.2760388 -0.23932229 0.6106168 -0.12481375
0.3557081 -0.07804286 0.050450824 -0.16465768 -0.040457357 0.16222018 0.44538862 0.21471463
-0.17333657 -0.3428084 0.13273866 -0.5120665 -0.10129299 0.30134594 -0.23334448 -0.4186598
-0.31942853 0.1548688 -0.3237802 -0.008895941 -0.12687239 0.103335336 0.1783684 0.057128742
0.10574289 -0.008435809 -0.436032 0.48494425 -0.5343178 0.6130625 0.0768485 0.13746873
-0.3999404 -0.5088597 0.33663753 -0.18354243 -0.33134452 0.30621222 0.89095104 -0.10084015
0.39421776 -0.95674825 -0.53045815 -0.2518989 0.6232716 0.55416197 0.29843903 -0.14212762
-0.34978285 0.14321047 0.13990983 -0.9560923 0.399841 -0.6828741 0.41902873 -0.0982786
00000000: 6885 343f a2d4 a53e eda5 57be cb8b a33e
00000010: f554 8d3e e710 75be 6251 1c3f 5a9e ffbd
00000020: 5f1f b63e efd4 9fbd 86a5 4e3d 069c 28be
00000030: 9db6 25bd 0c1d 263e fa09 e43e 27de 5b3e
00000040: 247f 31be 9584 afbe a5ec 073e ca16 03bf
00000050: b372 cfbd 044a 9a3e dbf1 6ebe 945a d6be
00000060: 238c a3be ed95 1e3e 85c6 a5be 48c0 11bc
00000070: d6ea 01be 7aa1 d33d 35a6 363e d4ff 693d
00000080: ba8f d83d 5936 0abc 963f dfbe 9d4a f83e
00000090: 0dc9 08bf aaf1 1c3f bf62 9d3d 9ac4 0c3e
000000a0: fdc4 ccbe a144 02bf c15b ac3e 8cf2 3bbe
000000b0: fda5 a9be d9c7 9c3e 5e15 643f 4885 cebd
000000c0: e9d6 c93e 74ed 74bf 1bcc 07bf e5f8 80be
000000d0: ba8e 1f3f 8fdd 0d3f 00cd 983e e789 11be
000000e0: bd16 b3be c4a5 123e 8644 0f3e 77c2 74bf
000000f0: f6b7 cc3e d6d0 2ebf ef8a d63e 4a46 c9bd

convblock2.2.running_var f4 [64]
0.29380962 0.2863601 0.07159322 0.14457272 0.12120889 0.25030968 0.75706095 0.24472517
0.40807185 0.17558885 0.09500984 0.07883522 0.1413369 0.017888084 0.52454495 0.47933638
0.29120922 0.46692094 0.036418322 0.1521029 0.73959094 0.1422008 0.21641797 0.06820473
0.5227726 0.16472416 0.19741438 0.19209264 0.063937165 0.12083448 0.16831395 0.100469485
0.198527 0.016674127 0.18139468 0.068413265 0.5749695 2.8410952 0.049956728 0.08067346
0.19550729 0.61933094 0.32351208 0.109343894 0.15852092 0.08938984 5.458865 0.34565076
0.17382911 1.9531999 0.4852453 0.6382009 0.12803534 0.8731467 0.34487003 0.17586981
0.108687826 0.16630124 0.07189556 1.3701954 0.24079716 0.7502555 0.1310139 0.1786894
00000000: 376e 963e cb9d 923e 779f 923d df0a 143e
00000010: 5e3c f83d 9728 803e bfce 413f 3c99 7a3e
00000020: cbee d03e 90cd 333e 8594 c23d 5c74 a13d
00000030: 9fba 103e 088a 923c 9448 063f 946b f53e
00000040: 6019 953e 4310 ef3e 612b 153d ddc0 1b3e
00000050: d555 3d3f 169d 113e ac9c 5d3e ecae 8b3d
00000060: 6dd4 053f 73ad 283e ff26 4a3e efb3 443e
00000070: 7df1 823d 1178 f73d 7e5a 2c3e f2c2 cd3d
00000080: a94a 4b3e 2e98 883c 87bf 393e 411c 8c3d
00000090: 3331 133f 81d4 3540 6d9f 4c3d 2138 a53d
000000a0: 1033 483e 798c 1e3f 60a3 a53e b1ef df3d
000000b0: 4f53 223e 0512 b73d 06af ae40 23f9 b03e
000000c0: 4200 323e 7402 fa3f 1272 f83e 2261 233f
000000d0: b21b 033e 8b86 5f3f ce92 b03e 3717 343e
000000e0: b997 de3d df4a 2a3e fb3d 933d 9062 af3f
000000f0: 8893 763e bf10 403f 8228 063e 5bfa 363e

convblock3.0.weight f4 [64, 64, 3, 3]
-0.01644695 0.028017035 -0.010132125 -0.035068106 0.03483836 0.008795012 0.0299949 0.022898305
0.0029810248 -0.025589652 0.00480212 -0.00030259058 0.01831331 -0.02967603 0.0029005231 -0.027958006
-0.010406756 -0.027982095 0.02151456 0.025709847 -0.027898965 -0.025297945 0.0110300565 -0.009990411
-0.017228257 -0.014121999 -0.04824383 -0.025778882 0.031386483 -0.027369302 0.022273289 -0.016639683
-0.029811889 -0.027109424 0.026117094 -0.03934394 0.018447794 0.012301439 0.014879564 -0.032055095
-0.027195983 -0.006088287 -0.00883423 -0.0070594884 0.017876225 0.014418456 0.026073622 -0.03015559
-0.028504834 0.029847069 -0.0151425935 -0.01644142 0.014654051 -0.03792383 0.0115870675 -0.022350512
-0.010105595 -0.025791083 -0.0392841 -0.013985804 -0.0010499618 -0.025266603 -0.00051564013 -0.030114945
-0.019300805 0.022875467 0.036768023 0.029150872 -0.02097237 0.03676631 -0.017607398 0.02890301
0.0074172476 -0.00549044 -0.03441048 -0.037393097 -0.042112492 -0.00977718 0.026163097 0.011033035
0.032870453 -0.030594893 0.042235184 0.007018357 0.02210052 -0.018670602 -0.012222187 0.038246136
0.037763987 -0.010414123 -0.023131117 0.0004062943 0.04627687 0.044258106 -0.0018306166 0.016514253
0.03477582 -0.017650058 0.0041043693 0.03503614 0.02646952 0.019668238 0.042754672 0.02382832
-0.040266454 -0.021734126 -0.011148593 -0.03656365 0.030917095 0.007084689 0.044533376 0.0035105161
0.017997012 -0.0032693539 0.042961784 0.032293525 -0.0038815571 -0.0024971021 -0.009064812 -0.022451986
-0.050604653 0.013124202 0.019227002 -0.045519445 0.017688174 -0.035862934 -0.027031768 0.020844059
0.019214485 -0.0055698007 0.008598612 0.022452679 -0.017359566 0.04537637 -0.009231593 -5.1770756e-05
-0.028367488 -0.0020703245 0.014627872 -0.0023163715 -0.020329261 -0.002773826 -0.011117804 0.05407164
0.028768342 -0.0055531994 -0.015934631 0.018613795 -0.00851595 0.034864645 0.022155613 0.02952645
0.042316757 -0.014246143 -0.044933748 -0.017549286 -0.044705346 0.010452377 -0.01950752 0.016388394
-0.042184312 -9.442959e-05 0.0048763724 0.037540156 -0.026397606 0.0052864733 -0.022569627 -0.0074360366
0.030529132 -0.01495339 0.023193017 0.00727288 -0.00067758036 0.033027828 0.0027191276 -0.029861137
0.027721899 0.02204412 -0.02573523 0.011083751 -0.015447896 0.008133357 -0.005896012 -0.035437718
0.039724074 0.02552579 -0.03991147 -0.042599868 0.032238193 0.023764746 0.0013147929 -0.006428705
0.03982223 0.037385315 -0.030230766 -0.009249994 -0.010621574 -0.027571272 -0.006074312 0.0136946915
-0.012611102 -0.02940667 -0.0105463425 -0.017557178 -0.03046114 0.0012445615 -0.044007625 0.016249452
-0.007014714 -0.021415003 0.021449648 0.014936635 0.00091210374 0.027444689 0.020387977 -0.019298665
-0.0037268477 0.020123785 -0.035419676 -0.019657742 -0.048372537 0.007541101 0.018868392 0.027581776
-0.0014600083 -0.033737823 -0.03059611 -0.044553187 -0.015831552 -0.0035334132 -0.037515312 -0.0054044398
-0.0017530443 -0.031880327 0.001823664 -0.02982443 0.029671678 -0.041043054 -0.015337767 -0.0054659205
-0.030380014 0.01668268 -0.004756936 -0.0015645886 0.014775236 0.047115337 0.012561284 -0.019233895
-0.017496541 0.050746374 0.044550452 -0.012021154 0.027477086 -0.024366569 -0.027457183 -0.0026085526
00000000: c1bb 86bc fb83 e53c 3601 26bc 93a3 0fbd
00000010: abb2 0e3d f418 103c ddb7 f53c 3a95 bb3c
00000020: 4c5d 433b 64a1 d1bc 1a5b 9d3b 05a5 9eb9
00000030: cb05 963c 251b f3bc b416 3e3b 3008 e5bc
00000040: 1981 2abc b53a e5bc 4d3f b03c 759d d23c
00000050: 5f8c e4bc a33d cfbc 69b7 343c d2ae 23bc
00000060: 4622 8dbc f55f 67bc 539b 45bd 3c2e d3bc
00000070: 1d8f 003d 9635 e0bc 7976 b63c f24f 88bc
00000080: 1038 f4bc 9514 debc 84f3 d53c 1c27 21bd
00000090: d41f 973c fa8b 493c 6ac9 733c 344c 03bd
000000a0: 1cca debc 4180 c7bb 72bd 10bc 4853 e7bb
000000b0: 2971 923c 633b 6c3c 5998 d53c db08 f7bc
000000c0: f882 e9bc d781 f43c a418 78bc 28b0 86bc
000000d0: 8b17 703c 0556 1bbd afd7 3d3c 6c18 b7bc
000000e0: f091 25bc d247 d3bc 5de8 20bd b724 65bc
000000f0: df9e 89ba e8fb cebc 062c 07ba 9eb3 f6bc
00000100: b91c 9ebc 5565 bb3c 119a 163d cfcd ee3c
00000110: 3fce abbc 4598 163d 643d 90bc 01c6 ec3c
00000120: 620c f33b 26e9 b3bb 01f2 0cbd 8129 19bd
00000130: 267e 2cbd 7730 20bc fe53 d63c e7c3 343c
00000140: 2ba3 063d 24a2 fabc cdfe 2c3d 3ffa e53b
00000150: 260c b53c 17f3 98bc 913f 48bc fba7 1c3d
00000160: 69ae 1a3d ff9f 2abc 787d bdbc e603 d539
00000170: d18c 3d3d fd47 353d 4df1 efba e648 873c
00000180: 1771 0e3d db96 90bc f27d 863b 0e82 0f3d
00000190: 9bd6 d83c 491f a13c 861f 2f3d 9c33 c33c
000001a0: 70ee 24bd c40b b2bc 97a8 36bc c4c3 15bd
000001b0: d945 fd3c ae26 e83b a168 363d b010 663b
000001c0: 786e 933c a842 56bb b2f8 2f3d 3746 043d
000001d0: b961 7ebb 6ca6 23bb 9484 14bc 3aed b7bc
000001e0: d346 4fbd e506 573c f281 9d3c 9972 3abd
000001f0: cae6 903c 03e5 12bd ba71 ddbc 29c1 aa3c
00000200: b267 9d3c e082 b6bb 31e1 0c3c aeee b73c
00000210: a635 8ebc 93dc 393d 1c40 17bc 6d24 59b8
00000220: ef62 e8bc 48ae 07bb bea9 6f3c 44ce 17bb
00000230: 8d89 a6bc 14c9 35bb 7327 36bc 397a 5d3d
00000240: 96ab eb3c 9df7 b5bb 5889 82bc f57b 983c
00000250: 7c86 0bbc 3bce 0e3d b07f b53c 74e1 f13c
00000260: 5654 2d3d a868 69bc 730c 38bd 85c3 8fbc
00000270: f41c 37bd 7240 2b3c 3cce 9fbc f440 863c
00000280: 75c9 2cbd 8008 c6b8 fac9 9f3b b5c3 193d
00000290: cb3f d8bc 273a ad3b f0e3 b8bc ffa9 f3bb
000002a0: 3b18 fa3c 10ff 74bc 48ff bd3c 5751 ee3b
000002b0: a69f 31ba 3048 073d 6433 323b 589f f4bc
000002c0: 0919 e33c df95 b43c b0d2 d2bc 9f98 353c
000002d0: 2c19 7dbc c641 053c 5533 c1bb 2427 11bd
000002e0: b6b5 223d 761b d13c 367a 23bd 337d 2ebd
000002f0: 320c 043d 49ae c23c 2155 ac3a e3a7 d2bb
00000300: a21c 233d 5821 193d 83a6 f7bc 498d 17bc
00000310: 1c06 2ebc 26dd e1bc 060b c7bb b35f 603c
00000320: cc9e 4ebc 42e6 f0bc 91ca 2cbc 12d4 8fbc
00000330: a489 f9bc 8e20 a33a 5741 34bd 921d 853c
00000340: b0db e5bb 846e afbc 2cb7 af3c cab8 743c
00000350: 3f1a 6f3a afd3 e03c b004 a73c 3c18 9ebc
00000360: 213e 74bb a3da a43c 3914 11bd 4609 a1bc
00000370: 4822 46bd 571b f73b e391 9a3c 2df3 e13c
00000380: c05d bfba ac30 0abd b1a4 fabc 677d 36bd
00000390: 2cb1 81bc d690 67bb a8a9 19bd ba17 b1bb
000003a0: 68c6 e5ba f294 02bd 0208 ef3a 5d52 f4bc
000003b0: 0512 f33c c31c 28bd 424b 7bbc 771b b3bb
000003c0: 82df f8bc 1eaa 883c 12e0 9bbb e212 cdba
000003d0: d513 723c 03fc 403d d8cd 4d3c 6790 9dbc
000003e0: e854 8fbc 6edb 4f3d 897a 363d 60f4 44bc
000003f0: a017 e13c 669c c7bc e3ed e0bc 40f4 2abb

convblock3.1.weight f4 [64]
0.98017967 0.97345686 1.0048826 0.9809545 0.98045087 0.9749783 1.0069599 0.9808239
0.9786569 0.9681736 1.0167174 0.9845188 0.99822164 0.9488015 0.9687819 0.962357
0.9885411 0.97540605 0.9854197 1.0159279 0.9914197 0.94795734 0.992767 0.9921501
0.9813422 0.9746581 0.9896901 0.9907295 1.0171341 0.986599 0.9741433 0.9728831
0.95993197 0.9825834 0.9712824 0.97438467 0.98190445 0.96462595 0.98010844 1.0080712
0.99759996 0.97956824 0.9789947 0.9846897 0.9774128 0.9815075 0.97901016 0.9724638
0.9929135 0.9783146 0.98142856 0.9915965 0.95960295 0.99779695 0.9894906 0.9795854
1.0115048 0.9894641 0.98177224 0.99443084 0.9817294 0.98333323 0.9685779 1.0113416
00000000: 0eed 7a3f 7834 793f fe9f 803f d61f 7b3f
00000010: d4fe 7a3f 2e98 793f 10e4 803f 4617 7b3f
00000020: 4289 7a3f 3ada 773f cc23 823f 6d09 7c3f
00000030: 748b 7f3f a8e4 723f 1702 783f 075d 763f
00000040: 0811 7d3f 36b4 793f 7744 7c3f ed09 823f
00000050: aecd 7d3f 55ad 723f fa25 7e3f 8dfd 7d3f
00000060: 3e39 7b3f 3183 793f 555c 7d3f 73a0 7d3f
00000070: 7331 823f c191 7c3f 7561 793f de0e 793f
00000080: 1abe 753f 968a 7b3f f7a5 783f 4671 793f
00000090: 175e 7b3f baf1 763f 63e8 7a3f 7a08 813f
000000a0: b662 7f3f fcc4 7a3f 669f 7a3f a014 7c3f
000000b0: ba37 7a3f 1344 7b3f 69a0 7a3f 63f3 783f
000000c0: 942f 7e3f d372 7a3f e73e 7b3f 45d9 7d3f
000000d0: 8aa8 753f 9f6f 7f3f 424f 7d3f 1cc6 7a3f
000000e0: fd78 813f 854d 7d3f 6d55 7b3f 0593 7e3f
000000f0: 9e52 7b3f babb 7b3f b9f4 773f a473 813f

convblock3.1.bias f4 [64]
-0.008297147 -0.016327914 -0.01640603 -0.0111898435 -0.00039162737 -0.008889116 0.061875407 -0.013569272
0.0058193873 -0.010180817 -0.008634836 0.020858476 -0.02158926 -0.017851463 -0.014582336 -0.010421487
0.008885245 -0.0054591415 -0.010494825 0.033860438 0.034461193 -0.024312913 0.002661994 0.016110387
0.04375618 0.0004107439 -0.011162232 -0.0015315539 0.028869184 -0.008082142 -0.010522309 -0.003184067
0.020369932 -0.021387327 -0.00818631 -0.01089532 -0.009518393 -0.01577317 0.006494225 0.024705429
0.013617972 0.00817559 -0.017766176 0.010002812 -0.017341563 -0.00070441567 -0.001357021 -0.0074552465
-0.0028263065 0.002994354 -0.012347128 -0.012214584 -0.0069882697 -0.011237668 -0.012834346 -0.02861114
0.009014089 -0.010349762 -0.017600337 0.0313036 -0.0068890844 0.0026568726 -0.043110084 -0.00048100873
00000000: c2f0 07bc 1ec2 85bc f065 86bc 9b55 37bc
00000010: 5653 cdb9 a8a3 11bc 1171 7d3d a751 5ebc
00000020: 8fb0 be3b 71cd 26bc 2179 0dbc 65df aa3c
00000030: f6db b0bc 3b3d 92bc c0ea 6ebc e2be 2abc
00000040: 6b93 113c 99e2 b2bb 7df2 2bbc 3eb1 0a3d
00000050: 2e27 0d3d e02b c7bc d974 2e3b eef9 833c
00000060: ae39 333d 1d59 d739 cbe1 36bc 6cbe c8ba
00000070: 117f ec3c f66a 04bc c365 2cbc c8ab 50bb
00000080: d8de a63c 7a34 afbc df1f 06bc 4982 32bc
00000090: 09f3 1bbc bc36 81bc 82cd d43b 0a63 ca3c
000000a0: ea1d 5f3c e9f2 053c 5f8a 91bc d6e2 233c
000000b0: e50f 8ebc 89a8 38ba 12de b1ba 244b f4bb
000000c0: 8e39 39bb ed3c 443b 9c4b 4abc ae1f 48bc
000000d0: dbfd e4bb 321e 38bc 2647 52bc e961 eabc
000000e0: d4af 133c 0c92 29bc 952e 90bc 3438 003d
000000f0: d4bd e1bb ed1e 2e3b 3394 30bd e62f fcb9

convblock3.1.running_mean f4 [64]
0.37395215 -0.4226366 -0.07829584 -0.07042672 -0.04475071 0.6188515 -0.5489762 1.1603438
0.07201892 0.74121153 0.05146789 -5.9989867 0.1523563 -0.30277476 0.22025946 -0.4721858
-0.7360761 0.5192617 -1.8261324 -0.38401544 -0.59225416 10.090365 0.7281242 -0.119757146
-0.36849165 -3.225098 -0.92365277 1.1732227 -6.455468 1.1797141 0.63664573 -1.3379817
3.2882454 -2.8445382 0.50645286 -0.20990711 0.56451285 -6.202323 -1.0535638 1.0164652
1.9008241 1.1100293 -0.084958464 -0.17066737 -2.8404233 2.450175 0.857082 2.4884188
-0.3305879 -0.35887557 -0.7941934 1.6881131 -4.56768 -0.0036778285 -0.6688308 -0.3011129
4.4029937 -0.7590687 0.4147538 -0.38881287 1.0629007 1.0620762 0.041153714 -0.9295806
00000000: a876 bf3e d363 d8be 9259 a0bd e23b 90bd
00000010: 854c 37bd 0d6d 1e3f b489 0cbf 2586 943f
00000020: a87e 933d 0ac0 3d3f ffcf 523d b3f7 bfc0
00000030: 4a03 1c3e 4b05 9bbe b28b 613e 56c2 f1be
00000040: 7c6f 3cbf 56ee 043f b5be e9bf ac9d c4be
00000050: f89d 17bf 2372 2141 5966 3a3f 3c43 f5bd
00000060: f0aa bcbe 0168 4ec0 8274 6cbf 292c 963f
00000070: 3293 cec0 df00 973f 37fb 223f fc42 abbf
00000080: 9d72 5240 ea0c 36c0 e5a6 013f e4f1 56be
00000090: ea83 103f 6e79 c6c0 2edb 86bf 881b 823f
000000a0: 344e f33f 7115 8e3f b4fe adbd 6dc3 2ebe
000000b0: 7fc9 35c0 abcf 1c40 ba69 5b3f 4142 1f40
000000c0: d142 a9be 8abe b7be 4250 4bbf 1714 d83f
000000d0: 6f2a 92c0 b907 71bb 7f38 2bbf 782b 9abe
000000e0: 53e5 8c40 5452 42bf 9c5a d43e 7b12 c7be
000000f0: 210d 883f 1df2 873f cc90 283d fff8 6dbf

convblock3.1.running_var f4 [64]
1.9668429 0.62596345 0.32436857 4.0595345 0.8467267 5.8706245 0.6689094 2.4838004
0.33578852 2.244647 0.80031526 277.20245 0.46491328 3.2910633 2.4120853 1.9717668
0.42740056 1.969634 10.483271 0.43152702 0.44107768 392.9774 0.310319 0.36465573
20.200539 20.23579 0.34715873 1.2924675 544.34033 4.2663393 2.1758866 20.5424
36.39185 6.8596444 6.375921 2.708568 1.7640593 27.69919 7.489624 0.94753265
6.536355 4.206744 2.3259206 0.5369538 11.131372 21.150532 1.8514283 24.512323
5.438114 0.42300013 0.49834874 7.8765087 22.41356 0.7427191 1.0453644 0.7554963
10.960679 0.5616533 5.059969 5.922697 0.48891386 2.0095403 228.0405 0.59902006
00000000: 82c1 fb3f 243f 203f a313 a63e b5e7 8140
00000010: 15c3 583f 28dc bb40 a53d 2b3f 96f6 1e40
00000020: 79ec ab3e 4ca8 0f40 76e1 4c3f ea99 8a43
00000030: 1d09 ee3e c8a0 5240 9b5f 1a40 db62 fc3f
00000040: 3fd4 da3e f81c fc3f 7abb 2741 1cf1 dc3e
00000050: efd4 e13e 1b7d c443 22e2 9e3e 28b4 ba3e
00000060: b49a a141 e6e2 a141 cabe b13e 936f a53f
00000070: c815 0844 da85 8840 ba41 0b40 d656 a441
00000080: 4191 1142 3582 db40 8b07 cc40 2e59 2d40
00000090: b2cc e13f f197 dd41 00ab ef40 8091 723f
000000a0: d229 d140 a69d 8640 e2db 1440 ce75 093f
000000b0: 1a1a 3241 4a34 a941 9afb ec3f 3d19 c441
000000c0: 0805 ae40 7993 d83e 9127 ff3e 5c0c fc40
000000d0: f94e b341 d722 3e3f 80ce 853f 3568 413f
000000e0: f15e 2f41 83c8 0f3f 44eb a140 bc86 bd40
000000f0: eb52 fa3e 4f9c 0040 5e0a 6443 6159 193f

convblock4.0.weight f4 [64, 64, 3, 3]
0.044002064 -0.016744079 -0.0016284933 0.047029026 0.042712644 -0.007654647 -0.03295948 -0.015306961
0.010789023 -0.02352486 0.0062620295 -0.007869034 -0.025118737 0.028120352 -0.018870026 0.0124001745
0.004035613 0.029055981 0.0381658 0.054183137 0.009419155 0.020273143 0.020094583 0.051620763
0.016548054 0.028053 0.021492029 0.04637869 -0.023552578 0.03227562 -0.0057765725 -0.010700092
0.04651416 0.05465011 0.013020828 -0.011896822 0.009163671 -0.02882428 0.0025522818 0.030087987
0.031345587 0.0066212555 -0.02375675 0.02316301 -0.05085762 0.054326877 -0.0015762455 0.04958255
0.0012527554 0.0072224643 -0.0122730825 -0.024366625 0.024591157 0.0020258739 0.039720085 0.007493862
0.081886984 0.081017934 0.021185655 0.07923228 0.057788305 0.062750146 0.06423268 0.0072469767
0.039379857 0.025660682 0.027197123 0.03273216 -0.011508057 0.0017939612 0.0008031878 -0.0011245527
-0.01686241 0.013379746 0.04419481 0.057945527 0.0028737972 0.02634021 0.052411404 0.0524019
-0.023207204 -0.009716091 0.035440776 0.0149327135 -0.026180541 -0.002374318 0.043667343 -0.0062063457
0.020856477 0.049366664 0.0006113204 -0.0048903627 0.07042862 0.06730076 0.0666781 -0.0016864144
0.06127688 0.020899942 0.052002933 -0.12672353 -0.078450024 -0.14876485 -0.09528805 -0.13013649
-0.113283075 -0.11973799 -0.11403493 -0.09920838 -0.0480697 -0.07460449 -0.04312953 -0.08979681
-0.040403035 -0.080749735 -0.036851827 -0.01638263 -0.068185784 0.0031230617 0.03533467 0.03195331
-0.028687427 0.041684944 0.03508273 -0.021845073 0.027777508 0.017986307 -0.003071826 -0.003877038
0.0014396614 0.02943145 -0.012229025 0.04090837 0.017755669 0.02006053 -0.013896983 0.036622353
-0.010083043 0.034429155 -0.011289681 0.021300353 -0.024548156 0.03530108 0.008875229 -0.032771412
-0.027471386 -0.02055896 -0.0025663488 -0.02275528 0.040337436 0.022672977 -0.0046714386 0.0029699388
-0.027896842 0.017524103 0.03595424 0.025249498 -0.014628426 0.002440316 0.03686259 -0.018799707
0.027895026 0.039213836 0.036496703 -0.0036979122 0.016733788 -0.017635599 0.0049956082 0.017872509
0.016358573 -0.043463543 0.003747239 0.06580058 0.00049191195 -0.004998988 0.0112570105 0.065257326
0.009672512 0.040465154 0.07310865 0.0637125 0.007845799 0.022844901 -0.01796355 0.045542024
-0.00783715 -0.0071299975 0.03990219 0.0488738 0.035277814 -0.093659975 -0.108786315 -0.07699243
-0.058052417 -0.08699898 -0.122066066 -0.07744401 -0.060514987 -0.080743864 0.05024027 0.0077981316
-0.021939315 -0.0048681656 0.021810235 0.020226639 0.0049527735 0.016005367 -0.030469222 0.006976601
0.049456432 -0.006720171 0.0394767 0.033676863 0.028324025 0.013598281 0.04006215 0.05975394
0.017363466 0.0033751433 0.03572002 0.049644347 0.07161045 0.024523286 0.0619451 0.045842074
0.017216686 -0.003256207 -0.004769046 -0.0028149066 0.013966153 0.0047720256 0.010998607 -0.006703866
-0.008056598 0.020724893 0.030740846 0.020337518 -0.0054573826 0.015926085 0.029829431 0.011248881
-0.0010386433 0.036396347 0.0032352568 0.016641155 -0.020930106 -0.025306799 0.029016593 0.02414802
-0.027414242 0.039611164 -0.0028919168 -0.0007750838 -0.019891504 -0.0016390426 -0.018532617 -0.037900984
00000000: 823b 343d e12a 89bc 2b73 d5ba 82a1 403d
00000010: 74f3 2e3d d5d3 fabb 8500 07bd 0cca 7abc
00000020: 71c4 303c 35b7 c0bc b631 cd3b 1fed 00bc
00000030: cfc5 cdbc a75c e63c 5095 9abc 1a2a 4b3c
00000040: 2d3d 843b cf06 ee3c be53 1c3d 23ef 5d3d
00000050: cd52 1a3c dd13 a63c 659d a43c 4b70 533d
00000060: c98f 873c 68cf e53c 0d10 b03c 95f7 3d3d
00000070: 56f1 c0bc 7133 043d 6749 bdbb 704f 2fbc
00000080: a285 3e3d cbd8 5f3d 5055 553c e3ea 42bc
00000090: 3923 163c e520 ecbc 2f44 273b 157b f63c
000000a0: 3b64 003d 1ef7 d83b 849d c2bc 5ac0 bd3c
000000b0: 1450 50bd dc85 5e3d 069a ceba 1217 4b3d
000000c0: 7f33 a43a 6caa ec3b 0a15 49bc 849c c7bc
000000d0: 6573 c93c 86c4 043b 87b1 223d 128f f53b
000000e0: 5db4 a73d bbec a53d 8a8d ad3c 8944 a23d
000000f0: 6eb3 6c3d 2683 803d 6c8c 833d 0c78 ed3b
00000100: c64c 213d 5a36 d23c 80cc de3c 2812 063d
00000110: 4a8c 3cbc 5923 eb3a 058d 523a ba65 93ba
00000120: 0923 8abc b936 5b3c 9e05 353d 4a58 6d3d
00000130: 5156 3c3b 6dc7 d73c 57ad 563d 60a3 563d
00000140: 091d bebc 3d30 1fbc 592a 113d 57a8 743c
00000150: 9378 d6bc 729a 1bbb 87dc 323d 9a5e cbbb
00000160: 34db aa3c b334 4a3d 0541 203a 563f a0bb
00000170: e13c 903d fbd4 893d 878e 883d ad0a ddba
00000180: 77fd 7a3d 5b36 ab3c 0701 553d d0c3 01be
00000190: 68aa a0bd d055 18be 6226 c3bd 8042 05be
000001a0: f500 e8bd 3139 f5bd 258b e9bd c32d cbbd
000001b0: bce4 44bd 3dca 98bd 97a8 30bd 64e7 b7bd
000001c0: a77d 25bd 1e60 a5bd f1f1 16bd de34 86bc
000001d0: fda4 8bbd 48ac 4c3b 16bb 103d 79e1 023d
000001e0: e501 ebbc d5bd 2a3d e9b2 0f3d 70f4 b2bc
000001f0: a88d e33c 0558 933c b050 49bb e715 7ebb
00000200: 05b3 bc3a 391a f13c 405c 48bc 898f 273d
00000210: 5674 913c fb55 a43c 2cb0 63bc 5201 163d
00000220: 5933 25bc 9605 0d3d 5bf8 38bc 147e ae3c
00000230: 3719 c9bc de97 103d 6969 113c 513b 06bd
00000240: ac0b e1bc 446b a8bc 3030 28bb 4869 babc
00000250: de38 253d aebc b93c de12 99bb 4ea3 423b
00000260: eb87 e4bc b58e 8f3c c144 133d 09d8 ce3c
00000270: 11ac 6fbc b5ed 1f3b 3afd 163d d801 9abc
00000280: 1c84 e43c b09e 203d 917d 153d ac58 72bb
00000290: 4c15 893c 8878 90bc 33b2 a33b 5e69 923c
000002a0: 6a02 863c d406 32bd 3d94 753b 74c2 863d
000002b0: a7f3 003a 8dce a3bb 536f 383c a2a5 853d
000002c0: 7579 1e3c cabe 253d fdb9 953d b37b 823d
000002d0: ab8b 003c 3b25 bb3c 4b28 93bc 468a 3a3d
000002e0: 6467 00bc c1a2 e9bb 7b70 233d e52f 483d
000002f0: 787f 103d cdd0 bfbd 5ccb debd 35ae 9dbd
00000300: 5fc8 6dbd 852c b2bd c6fd f9bd f79a 9ebd
00000310: 90de 77bd 0a5d a5bd bec8 4d3d 7887 ff3b
00000320: 14ba b3bc 2285 9fbb 61ab b23c 56b2 a53c
00000330: e04a a23b b01d 833c 979a f9bc f99b e43b
00000340: d492 4a3d e134 dcbb 52b2 213d c0f0 093d
00000350: c907 e83c 53cb 5e3c 3618 243d 8cc0 743d
00000360: d43d 8e3c 8231 5d3b 284f 123d df57 4b3d
00000370: 80a8 923d 0fe5 c83c 25ba 7d3d e6c4 3b3d
00000380: 020a 8d3c 1766 55bb a845 9cbb 4c7a 38bb
00000390: 4bd2 643c a75e 9c3b 8033 343c 1bac dbbb
000003a0: d2ff 03bc 40c7 a93c 3ad4 fb3c de9a a63c
000003b0: d8d3 b2bb 6c77 823c da5c f43c 3a4d 383c
000003c0: 1623 88ba 5614 153d 9a06 543b 0853 883c
000003d0: 9d75 abbc 3450 cfbc 35b4 ed3c 12d2 c53c
000003e0: d593 e0bc 513f 223d 5086 3dbb fe2e 4bba
000003f0: 82f3 a2bc 25d5 d6ba b7d1 97bc 103e 1bbd

convblock4.1.weight f4 [64]
0.9796029 0.98493487 0.98512256 0.9793404 0.9786471 0.98526424 0.997322 1.0762999
0.98777354 0.98318005 0.980015 0.97681403 0.9840297 0.9826003 0.99355155 0.9610257
1.0745587 0.98458284 0.9672666 0.9941654 0.9816103 0.99031126 0.99280417 0.97146153
0.97460854 0.9966532 0.9787468 0.9797988 0.97978985 0.96289825 1.0113553 0.9834026
0.9952445 0.97968376 0.9729846 0.97873294 0.97264355 1.155679 0.98276937 0.9692639
1.0222979 0.9791743 0.9943846 0.9711449 1.0005207 0.9872428 0.940205 0.9814335
0.9800822 0.96705633 0.982056 1.0215956 0.9844301 1.0088 1.0494614 1.0000013
1.0468512 0.9876821 0.9983363 1.1625915 0.9873082 1.143167 0.98297673 0.9679302
00000000: 41c7 7a3f b124 7c3f fe30 7c3f 0db6 7a3f
00000010: 9e88 7a3f 473a 7c3f 7f50 7f3f 32c4 893f
00000020: bade 7c3f b0b1 7b3f 43e2 7a3f 7c10 7a3f
00000030: 5fe9 7b3f b18b 7b3f 6559 7e3f c805 763f
00000040: 248b 893f 9f0d 7c3f c99e 773f a081 7e3f
00000050: d04a 7b3f 0a85 7d3f 6a28 7e3f b4b1 783f
00000060: f27f 793f aa24 7f3f 268f 7a3f 18d4 7a3f
00000070: 82d3 7a3f 8080 763f 1774 813f 46c0 7b3f
00000080: 58c8 7e3f 8ecc 7a3f 8515 793f 3e8e 7a3f
00000090: 2bff 783f 4aed 933f c696 7b3f ae21 783f
000000a0: a8da 823f 2bab 7a3f fd8f 7e3f f49c 783f
000000b0: 1011 803f f2bb 7c3f 46b1 703f 3a3f 7b3f
000000c0: abe6 7a3f 0191 773f 0668 7b3f a5c3 823f
000000d0: 9c03 7c3f 5c20 813f c054 863f 0b00 803f
000000e0: 38ff 853f bcd8 7c3f f892 7f3f cccf 943f
000000f0: 3bc0 7c3f 4c53 923f 5da4 7b3f 46ca 773f

convblock4.1.bias f4 [64]
-0.035336506 -0.00014630567 0.047101688 0.0017327223 0.004122523 -0.0025233815 0.0050768973 0.031273067
-0.00297232 0.0030270098 0.002685334 0.004010873 0.0018825947 0.08814176 0.0029695735 0.0003184788
0.013576568 0.0062500983 -0.00895919 0.006064694 -0.0005960331 -0.0032916912 0.022255847 -0.011598991
-0.0102513 0.0043579144 0.004783792 -0.00033405633 -0.0036770336 0.0025468427 0.014091972 -0.00559535
0.0079754945 -0.003530228 -0.0075169913 -0.005781008 -0.01774109 0.052354094 -0.0017585545 -0.01079765
0.020471701 0.020095032 -0.0008595733 -0.0071192486 0.004783768 0.004119592 -0.010800621 -0.003626907
-0.0023125578 -0.01574562 0.0009495628 0.010668487 -0.0031825807 0.0014057724 0.024847656 0.00862206
0.025181998 -0.0019054394 0.009733883 0.05634904 -0.0031946104 0.031220933 -0.0028753395 -0.013758529
00000000: 03bd 10bd a169 19b9 b3ed 403d 831c e33a
00000010: 3b16 873b 515f 25bb 1a5c a63b 3018 003d
00000020: 41cb 42bb cc60 463b 6efc 2f3b a46d 833b
00000030: 65c1 f63a ab83 b43d 2d9d 423b 80f9 a639
00000040: 4170 5e3c a0cd cc3b 91c9 12bc 57ba c63b
00000050: 1b3f 1cba 6ab9 57bb e551 b63c b209 3ebc
00000060: 12f5 27bc d6cc 8e3b 5bc1 9c3b 4824 afb9
00000070: 63fa 70bb eee8 263b 04e2 663c 3359 b7bb
00000080: a6ab 023c 665b 67bb 1851 f6bb 9c6e bdbb
00000090: c355 91bc 3f71 563d 4c7f e6ba a0e8 30bc
000000a0: 45b4 a73c 569e a43c fd54 61ba 9648 e9bb
000000b0: 28c1 9c3b a4fd 863b 16f5 30bc 67b1 6dbb
000000c0: 488e 17bb f5fc 80bc 15ec 783a e1ca 2e3c
000000d0: d892 50bb e541 b83a 508d cb3c 8a43 0d3c
000000e0: 7a4a ce3c f0bf f9ba dd7a 1f3c 40ce 663d
000000f0: ab5c 51bb 0bc3 ff3c 3170 3cbb 746b 61bc
